==========================================================================================
Layer (type:depth-idx)                   Output Shape              Param #
==========================================================================================
├─IntermediateLayerGetter: 1-1           [32, 2048, 32, 32]        --
|    └─Conv2d: 2-1                       [32, 64, 128, 128]        9,408
|    └─BatchNorm2d: 2-2                  [32, 64, 128, 128]        128
|    └─ReLU: 2-3                         [32, 64, 128, 128]        --
|    └─MaxPool2d: 2-4                    [32, 64, 64, 64]          --
|    └─Sequential: 2-5                   [32, 256, 64, 64]         --
|    |    └─Bottleneck: 3-1              [32, 256, 64, 64]         75,008
|    |    └─Bottleneck: 3-2              [32, 256, 64, 64]         70,400
|    |    └─Bottleneck: 3-3              [32, 256, 64, 64]         70,400
|    └─Sequential: 2-6                   [32, 512, 32, 32]         --
|    |    └─Bottleneck: 3-4              [32, 512, 32, 32]         379,392
|    |    └─Bottleneck: 3-5              [32, 512, 32, 32]         280,064
|    |    └─Bottleneck: 3-6              [32, 512, 32, 32]         280,064
|    |    └─Bottleneck: 3-7              [32, 512, 32, 32]         280,064
|    └─Sequential: 2-7                   [32, 1024, 32, 32]        --
|    |    └─Bottleneck: 3-8              [32, 1024, 32, 32]        1,512,448
|    |    └─Bottleneck: 3-9              [32, 1024, 32, 32]        1,117,184
|    |    └─Bottleneck: 3-10             [32, 1024, 32, 32]        1,117,184
|    |    └─Bottleneck: 3-11             [32, 1024, 32, 32]        1,117,184
|    |    └─Bottleneck: 3-12             [32, 1024, 32, 32]        1,117,184
|    |    └─Bottleneck: 3-13             [32, 1024, 32, 32]        1,117,184
|    └─Sequential: 2-8                   [32, 2048, 32, 32]        --
|    |    └─Bottleneck: 3-14             [32, 2048, 32, 32]        6,039,552
|    |    └─Bottleneck: 3-15             [32, 2048, 32, 32]        4,462,592
|    |    └─Bottleneck: 3-16             [32, 2048, 32, 32]        4,462,592
├─DeepLabHead: 1-2                       [32, 11, 32, 32]          --
|    └─ASPP: 2-9                         [32, 256, 32, 32]         --
|    |    └─Sequential: 3-17             [32, 256, 32, 32]         328,192
|    └─Conv2d: 2-10                      [32, 256, 32, 32]         589,824
|    └─BatchNorm2d: 2-11                 [32, 256, 32, 32]         512
|    └─ReLU: 2-12                        [32, 256, 32, 32]         --
|    └─Conv2d: 2-13                      [32, 11, 32, 32]          2,827
==========================================================================================
Total params: 24,429,387
Trainable params: 24,429,387
Non-trainable params: 0
Total mult-adds (G): 23.09
==========================================================================================
Input size (MB): 24.00
Forward/backward pass size (MB): 14018.75
Params size (MB): 93.19
Estimated Total Size (MB): 14135.94
…
