…
=
Layer (type:depth-idx)                        Output Shape              Param #
===============================================================================================
├─FastSCNN: 1-1                               []                        --
├─FastSCNN: 1                                 []                        --
|    └─LearningToDownsample: 2-1              []                        --
|    └─LearningToDownsample: 2                []                        --
|    |    └─_ConvBNReLU: 3-1                  []                        928
├─FastSCNN: 1-2                               [8, 11, 256, 256]         --
├─FastSCNN: 1                                 []                        --
|    └─LearningToDownsample: 2-2              [8, 64, 32, 32]           --
|    └─LearningToDownsample: 2                []                        --
|    |    └─_ConvBNReLU: 3-2                  [8, 32, 127, 127]         --
|    |    └─_DSConv: 3-3                      [8, 48, 64, 64]           1,984
|    |    └─_DSConv: 3-4                      [8, 64, 32, 32]           3,728
|    └─GlobalFeatureExtractor: 2-3            [8, 128, 8, 8]            --
|    └─GlobalFeatureExtractor: 2              []                        --
|    |    └─Sequential: 3-5                   [8, 64, 16, 16]           162,816
|    |    └─Sequential: 3-6                   [8, 96, 8, 8]             303,168
|    |    └─Sequential: 3-7                   [8, 128, 8, 8]            550,464
|    |    └─PyramidPooling: 3-8               [8, 128, 8, 8]            49,664
|    └─FeatureFusionModule: 2-4               [8, 128, 32, 32]          --
|    └─FeatureFusionModule: 2                 []                        --
|    |    └─_DWConv: 3-9                      [8, 128, 32, 32]          1,408
|    |    └─Sequential: 3-10                  [8, 128, 32, 32]          16,768
|    |    └─Sequential: 3-11                  [8, 128, 32, 32]          8,576
|    |    └─ReLU: 3-12                        [8, 128, 32, 32]          --
|    └─Classifer: 2-5                         [8, 11, 32, 32]           --
|    └─Classifer: 2                           []                        --
|    |    └─_DSConv: 3-13                     [8, 128, 32, 32]          18,048
|    |    └─_DSConv: 3-14                     [8, 128, 32, 32]          18,048
|    |    └─Sequential: 3-15                  [8, 11, 32, 32]           1,419
|    └─LearningToDownsample: 2                []                        --
|    |    └─_DSConv: 3-16                     [8, 48, 64, 64]           --
|    |    └─_DSConv: 3-17                     [8, 64, 32, 32]           --
|    └─GlobalFeatureExtractor: 2-6            [8, 128, 8, 8]            --
|    └─GlobalFeatureExtractor: 2              []                        --
|    |    └─Sequential: 3-18                  [8, 64, 16, 16]           --
|    |    └─Sequential: 3-19                  [8, 96, 8, 8]             --
|    |    └─Sequential: 3-20                  [8, 128, 8, 8]            --
|    |    └─PyramidPooling: 3-21              [8, 128, 8, 8]            --
|    └─FeatureFusionModule: 2-7               [8, 128, 32, 32]          --
|    └─FeatureFusionModule: 2                 []                        --
|    |    └─_DWConv: 3-22                     [8, 128, 32, 32]          --
|    |    └─Sequential: 3-23                  [8, 128, 32, 32]          --
|    |    └─Sequential: 3-24                  [8, 128, 32, 32]          --
|    |    └─ReLU: 3-25                        [8, 128, 32, 32]          --
|    └─Classifer: 2-8                         [8, 11, 32, 32]           --
|    └─Classifer: 2                           []                        --
|    |    └─_DSConv: 3-26                     [8, 128, 32, 32]          --
|    |    └─_DSConv: 3-27                     [8, 128, 32, 32]          --
|    |    └─Sequential: 3-28                  [8, 11, 32, 32]           --
===============================================================================================
Total params: 1,137,019
Trainable params: 1,137,019
Non-trainable params: 0
Total mult-adds (M): 29.95
===============================================================================================
Input size (MB): 12.00
Forward/backward pass size (MB): 32.69
Params size (MB): 4.34
Estimated Total Size (MB): 49.02
…
