==========================================================================================
Layer (type:depth-idx)                   Output Shape              Param #
==========================================================================================
├─Sequential: 1-1                        [16, 32, 256, 256]        --
|    └─Conv2d: 2-1                       [16, 32, 256, 256]        864
|    └─BatchNorm2d: 2-2                  [16, 32, 256, 256]        64
|    └─ReLU: 2-3                         [16, 32, 256, 256]        --
|    └─Conv2d: 2-4                       [16, 32, 256, 256]        9,216
|    └─BatchNorm2d: 2-5                  [16, 32, 256, 256]        64
|    └─ReLU: 2-6                         [16, 32, 256, 256]        --
├─MaxPool2d: 1-2                         [16, 32, 128, 128]        --
├─Sequential: 1-3                        [16, 64, 128, 128]        --
|    └─Conv2d: 2-7                       [16, 64, 128, 128]        18,432
|    └─BatchNorm2d: 2-8                  [16, 64, 128, 128]        128
|    └─ReLU: 2-9                         [16, 64, 128, 128]        --
|    └─Conv2d: 2-10                      [16, 64, 128, 128]        36,864
|    └─BatchNorm2d: 2-11                 [16, 64, 128, 128]        128
|    └─ReLU: 2-12                        [16, 64, 128, 128]        --
├─MaxPool2d: 1-4                         [16, 64, 64, 64]          --
├─Sequential: 1-5                        [16, 128, 64, 64]         --
|    └─Conv2d: 2-13                      [16, 128, 64, 64]         73,728
|    └─BatchNorm2d: 2-14                 [16, 128, 64, 64]         256
|    └─ReLU: 2-15                        [16, 128, 64, 64]         --
|    └─Conv2d: 2-16                      [16, 128, 64, 64]         147,456
|    └─BatchNorm2d: 2-17                 [16, 128, 64, 64]         256
|    └─ReLU: 2-18                        [16, 128, 64, 64]         --
├─MaxPool2d: 1-6                         [16, 128, 32, 32]         --
├─Sequential: 1-7                        [16, 256, 32, 32]         --
|    └─Conv2d: 2-19                      [16, 256, 32, 32]         294,912
|    └─BatchNorm2d: 2-20                 [16, 256, 32, 32]         512
|    └─ReLU: 2-21                        [16, 256, 32, 32]         --
|    └─Conv2d: 2-22                      [16, 256, 32, 32]         589,824
|    └─BatchNorm2d: 2-23                 [16, 256, 32, 32]         512
|    └─ReLU: 2-24                        [16, 256, 32, 32]         --
├─MaxPool2d: 1-8                         [16, 256, 16, 16]         --
├─Sequential: 1-9                        [16, 512, 16, 16]         --
|    └─Conv2d: 2-25                      [16, 512, 16, 16]         1,179,648
|    └─BatchNorm2d: 2-26                 [16, 512, 16, 16]         1,024
|    └─ReLU: 2-27                        [16, 512, 16, 16]         --
|    └─Conv2d: 2-28                      [16, 512, 16, 16]         2,359,296
|    └─BatchNorm2d: 2-29                 [16, 512, 16, 16]         1,024
|    └─ReLU: 2-30                        [16, 512, 16, 16]         --
├─ConvTranspose2d: 1-10                  [16, 256, 32, 32]         524,544
├─Sequential: 1-11                       [16, 256, 32, 32]         --
|    └─Conv2d: 2-31                      [16, 256, 32, 32]         1,179,648
|    └─BatchNorm2d: 2-32                 [16, 256, 32, 32]         512
|    └─ReLU: 2-33                        [16, 256, 32, 32]         --
|    └─Conv2d: 2-34                      [16, 256, 32, 32]         589,824
|    └─BatchNorm2d: 2-35                 [16, 256, 32, 32]         512
|    └─ReLU: 2-36                        [16, 256, 32, 32]         --
├─ConvTranspose2d: 1-12                  [16, 128, 64, 64]         131,200
├─Sequential: 1-13                       [16, 128, 64, 64]         --
|    └─Conv2d: 2-37                      [16, 128, 64, 64]         294,912
|    └─BatchNorm2d: 2-38                 [16, 128, 64, 64]         256
|    └─ReLU: 2-39                        [16, 128, 64, 64]         --
|    └─Conv2d: 2-40                      [16, 128, 64, 64]         147,456
|    └─BatchNorm2d: 2-41                 [16, 128, 64, 64]         256
|    └─ReLU: 2-42                        [16, 128, 64, 64]         --
├─ConvTranspose2d: 1-14                  [16, 64, 128, 128]        32,832
├─Sequential: 1-15                       [16, 64, 128, 128]        --
|    └─Conv2d: 2-43                      [16, 64, 128, 128]        73,728
|    └─BatchNorm2d: 2-44                 [16, 64, 128, 128]        128
|    └─ReLU: 2-45                        [16, 64, 128, 128]        --
|    └─Conv2d: 2-46                      [16, 64, 128, 128]        36,864
|    └─BatchNorm2d: 2-47                 [16, 64, 128, 128]        128
|    └─ReLU: 2-48                        [16, 64, 128, 128]        --
├─ConvTranspose2d: 1-16                  [16, 32, 256, 256]        8,224
├─Sequential: 1-17                       [16, 32, 256, 256]        --
|    └─Conv2d: 2-49                      [16, 32, 256, 256]        18,432
|    └─BatchNorm2d: 2-50                 [16, 32, 256, 256]        64
|    └─ReLU: 2-51                        [16, 32, 256, 256]        --
|    └─Conv2d: 2-52                      [16, 32, 256, 256]        9,216
|    └─BatchNorm2d: 2-53                 [16, 32, 256, 256]        64
|    └─ReLU: 2-54                        [16, 32, 256, 256]        --
├─Conv2d: 1-18                           [16, 11, 256, 256]        363
==========================================================================================
Total params: 7,763,371
Trainable params: 7,763,371
Non-trainable params: 0
Total mult-adds (G): 13.71
==========================================================================================
Input size (MB): 12.00
Forward/backward pass size (MB): 4472.00
Params size (MB): 29.61
Estimated Total Size (MB): 4513.61
…
