…
=========================================
Layer (type:depth-idx)                   Output Shape              Param #
==========================================================================================
├─UNet: 1-1                              []                        --
├─UNet: 1                                []                        --
|    └─Sequential: 2-1                   []                        --
|    └─Sequential: 2                     []                        --
|    |    └─Conv2d: 3-1                  []                        864
├─UNet: 1-2                              [8, 11, 256, 256]         --
├─UNet: 1                                []                        --
|    └─Sequential: 2-2                   [8, 32, 256, 256]         --
|    └─Sequential: 2                     []                        --
|    |    └─Conv2d: 3-2                  [8, 32, 256, 256]         --
|    |    └─BatchNorm2d: 3-3             [8, 32, 256, 256]         --
|    |    └─ReLU: 3-4                    [8, 32, 256, 256]         --
|    |    └─Conv2d: 3-5                  [8, 32, 256, 256]         --
|    |    └─BatchNorm2d: 3-6             [8, 32, 256, 256]         --
|    |    └─ReLU: 3-7                    [8, 32, 256, 256]         --
|    └─MaxPool2d: 2-3                    [8, 32, 128, 128]         --
|    └─Sequential: 2-4                   [8, 64, 128, 128]         --
|    └─Sequential: 2                     []                        --
|    |    └─Conv2d: 3-8                  [8, 64, 128, 128]         --
|    |    └─BatchNorm2d: 3-9             [8, 64, 128, 128]         --
|    |    └─ReLU: 3-10                   [8, 64, 128, 128]         --
|    |    └─Conv2d: 3-11                 [8, 64, 128, 128]         --
|    |    └─BatchNorm2d: 3-12            [8, 64, 128, 128]         --
|    |    └─ReLU: 3-13                   [8, 64, 128, 128]         --
|    └─MaxPool2d: 2-5                    [8, 64, 64, 64]           --
|    └─Sequential: 2-6                   [8, 128, 64, 64]          --
|    └─Sequential: 2                     []                        --
|    |    └─Conv2d: 3-14                 [8, 128, 64, 64]          --
|    |    └─BatchNorm2d: 3-15            [8, 128, 64, 64]          --
|    |    └─ReLU: 3-16                   [8, 128, 64, 64]          --
|    |    └─Conv2d: 3-17                 [8, 128, 64, 64]          --
|    |    └─BatchNorm2d: 3-18            [8, 128, 64, 64]          --
|    |    └─ReLU: 3-19                   [8, 128, 64, 64]          --
|    └─MaxPool2d: 2-7                    [8, 128, 32, 32]          --
|    └─Sequential: 2-8                   [8, 256, 32, 32]          --
|    └─Sequential: 2                     []                        --
|    |    └─Conv2d: 3-20                 [8, 256, 32, 32]          --
|    |    └─BatchNorm2d: 3-21            [8, 256, 32, 32]          --
|    |    └─ReLU: 3-22                   [8, 256, 32, 32]          --
|    |    └─Conv2d: 3-23                 [8, 256, 32, 32]          --
|    |    └─BatchNorm2d: 3-24            [8, 256, 32, 32]          --
|    |    └─ReLU: 3-25                   [8, 256, 32, 32]          --
|    └─MaxPool2d: 2-9                    [8, 256, 16, 16]          --
|    └─Sequential: 2-10                  [8, 512, 16, 16]          --
|    └─Sequential: 2                     []                        --
|    |    └─Conv2d: 3-26                 [8, 512, 16, 16]          --
|    |    └─BatchNorm2d: 3-27            [8, 512, 16, 16]          --
|    |    └─ReLU: 3-28                   [8, 512, 16, 16]          --
|    |    └─Conv2d: 3-29                 [8, 512, 16, 16]          --
|    |    └─BatchNorm2d: 3-30            [8, 512, 16, 16]          --
|    |    └─ReLU: 3-31                   [8, 512, 16, 16]          --
|    └─ConvTranspose2d: 2-11             [8, 256, 32, 32]          --
|    └─Sequential: 2-12                  [8, 256, 32, 32]          --
|    └─Sequential: 2                     []                        --
|    |    └─Conv2d: 3-32                 [8, 256, 32, 32]          --
|    |    └─BatchNorm2d: 3-33            [8, 256, 32, 32]          --
|    |    └─ReLU: 3-34                   [8, 256, 32, 32]          --
|    |    └─Conv2d: 3-35                 [8, 256, 32, 32]          --
|    |    └─BatchNorm2d: 3-36            [8, 256, 32, 32]          --
|    |    └─ReLU: 3-37                   [8, 256, 32, 32]          --
|    └─ConvTranspose2d: 2-13             [8, 128, 64, 64]          --
|    └─Sequential: 2-14                  [8, 128, 64, 64]          --
|    └─Sequential: 2                     []                        --
|    |    └─Conv2d: 3-38                 [8, 128, 64, 64]          --
|    |    └─BatchNorm2d: 3-39            [8, 128, 64, 64]          --
|    |    └─ReLU: 3-40                   [8, 128, 64, 64]          --
|    |    └─Conv2d: 3-41                 [8, 128, 64, 64]          --
|    |    └─BatchNorm2d: 3-42            [8, 128, 64, 64]          --
|    |    └─ReLU: 3-43                   [8, 128, 64, 64]          --
|    └─ConvTranspose2d: 2-15             [8, 64, 128, 128]         --
|    └─Sequential: 2-16                  [8, 64, 128, 128]         --
|    └─Sequential: 2                     []                        --
|    |    └─Conv2d: 3-44                 [8, 64, 128, 128]         --
|    |    └─BatchNorm2d: 3-45            [8, 64, 128, 128]         --
|    |    └─ReLU: 3-46                   [8, 64, 128, 128]         --
|    |    └─Conv2d: 3-47                 [8, 64, 128, 128]         --
|    |    └─BatchNorm2d: 3-48            [8, 64, 128, 128]         --
|    |    └─ReLU: 3-49                   [8, 64, 128, 128]         --
|    └─ConvTranspose2d: 2-17             [8, 32, 256, 256]         --
|    └─Sequential: 2-18                  [8, 32, 256, 256]         --
|    └─Sequential: 2                     []                        --
|    |    └─Conv2d: 3-50                 [8, 32, 256, 256]         --
|    |    └─BatchNorm2d: 3-51            [8, 32, 256, 256]         --
|    |    └─ReLU: 3-52                   [8, 32, 256, 256]         --
|    |    └─Conv2d: 3-53                 [8, 32, 256, 256]         --
|    |    └─BatchNorm2d: 3-54            [8, 32, 256, 256]         --
|    |    └─ReLU: 3-55                   [8, 32, 256, 256]         --
|    └─Conv2d: 2-19                      [8, 11, 256, 256]         --
|    └─Sequential: 2                     []                        --
|    |    └─BatchNorm2d: 3-56            [8, 32, 256, 256]         64
|    |    └─ReLU: 3-57                   [8, 32, 256, 256]         --
|    |    └─Conv2d: 3-58                 [8, 32, 256, 256]         9,216
|    |    └─BatchNorm2d: 3-59            [8, 32, 256, 256]         64
|    |    └─ReLU: 3-60                   [8, 32, 256, 256]         --
|    └─MaxPool2d: 2-20                   [8, 32, 128, 128]         --
|    └─Sequential: 2-21                  [8, 64, 128, 128]         --
|    └─Sequential: 2                     []                        --
|    |    └─Conv2d: 3-61                 [8, 64, 128, 128]         18,432
|    |    └─BatchNorm2d: 3-62            [8, 64, 128, 128]         128
|    |    └─ReLU: 3-63                   [8, 64, 128, 128]         --
|    |    └─Conv2d: 3-64                 [8, 64, 128, 128]         36,864
|    |    └─BatchNorm2d: 3-65            [8, 64, 128, 128]         128
|    |    └─ReLU: 3-66                   [8, 64, 128, 128]         --
|    └─MaxPool2d: 2-22                   [8, 64, 64, 64]           --
|    └─Sequential: 2-23                  [8, 128, 64, 64]          --
|    └─Sequential: 2                     []                        --
|    |    └─Conv2d: 3-67                 [8, 128, 64, 64]          73,728
|    |    └─BatchNorm2d: 3-68            [8, 128, 64, 64]          256
|    |    └─ReLU: 3-69                   [8, 128, 64, 64]          --
|    |    └─Conv2d: 3-70                 [8, 128, 64, 64]          147,456
|    |    └─BatchNorm2d: 3-71            [8, 128, 64, 64]          256
|    |    └─ReLU: 3-72                   [8, 128, 64, 64]          --
|    └─MaxPool2d: 2-24                   [8, 128, 32, 32]          --
|    └─Sequential: 2-25                  [8, 256, 32, 32]          --
|    └─Sequential: 2                     []                        --
|    |    └─Conv2d: 3-73                 [8, 256, 32, 32]          294,912
|    |    └─BatchNorm2d: 3-74            [8, 256, 32, 32]          512
|    |    └─ReLU: 3-75                   [8, 256, 32, 32]          --
|    |    └─Conv2d: 3-76                 [8, 256, 32, 32]          589,824
|    |    └─BatchNorm2d: 3-77            [8, 256, 32, 32]          512
|    |    └─ReLU: 3-78                   [8, 256, 32, 32]          --
|    └─MaxPool2d: 2-26                   [8, 256, 16, 16]          --
|    └─Sequential: 2-27                  [8, 512, 16, 16]          --
|    └─Sequential: 2                     []                        --
|    |    └─Conv2d: 3-79                 [8, 512, 16, 16]          1,179,648
|    |    └─BatchNorm2d: 3-80            [8, 512, 16, 16]          1,024
|    |    └─ReLU: 3-81                   [8, 512, 16, 16]          --
|    |    └─Conv2d: 3-82                 [8, 512, 16, 16]          2,359,296
|    |    └─BatchNorm2d: 3-83            [8, 512, 16, 16]          1,024
|    |    └─ReLU: 3-84                   [8, 512, 16, 16]          --
|    └─ConvTranspose2d: 2-28             [8, 256, 32, 32]          524,544
|    └─Sequential: 2-29                  [8, 256, 32, 32]          --
|    └─Sequential: 2                     []                        --
|    |    └─Conv2d: 3-85                 [8, 256, 32, 32]          1,179,648
|    |    └─BatchNorm2d: 3-86            [8, 256, 32, 32]          512
|    |    └─ReLU: 3-87                   [8, 256, 32, 32]          --
|    |    └─Conv2d: 3-88                 [8, 256, 32, 32]          589,824
|    |    └─BatchNorm2d: 3-89            [8, 256, 32, 32]          512
|    |    └─ReLU: 3-90                   [8, 256, 32, 32]          --
|    └─ConvTranspose2d: 2-30             [8, 128, 64, 64]          131,200
|    └─Sequential: 2-31                  [8, 128, 64, 64]          --
|    └─Sequential: 2                     []                        --
|    |    └─Conv2d: 3-91                 [8, 128, 64, 64]          294,912
|    |    └─BatchNorm2d: 3-92            [8, 128, 64, 64]          256
|    |    └─ReLU: 3-93                   [8, 128, 64, 64]          --
|    |    └─Conv2d: 3-94                 [8, 128, 64, 64]          147,456
|    |    └─BatchNorm2d: 3-95            [8, 128, 64, 64]          256
|    |    └─ReLU: 3-96                   [8, 128, 64, 64]          --
|    └─ConvTranspose2d: 2-32             [8, 64, 128, 128]         32,832
|    └─Sequential: 2-33                  [8, 64, 128, 128]         --
|    └─Sequential: 2                     []                        --
|    |    └─Conv2d: 3-97                 [8, 64, 128, 128]         73,728
|    |    └─BatchNorm2d: 3-98            [8, 64, 128, 128]         128
|    |    └─ReLU: 3-99                   [8, 64, 128, 128]         --
|    |    └─Conv2d: 3-100                [8, 64, 128, 128]         36,864
|    |    └─BatchNorm2d: 3-101           [8, 64, 128, 128]         128
|    |    └─ReLU: 3-102                  [8, 64, 128, 128]         --
|    └─ConvTranspose2d: 2-34             [8, 32, 256, 256]         8,224
|    └─Sequential: 2-35                  [8, 32, 256, 256]         --
|    └─Sequential: 2                     []                        --
|    |    └─Conv2d: 3-103                [8, 32, 256, 256]         18,432
|    |    └─BatchNorm2d: 3-104           [8, 32, 256, 256]         64
|    |    └─ReLU: 3-105                  [8, 32, 256, 256]         --
|    |    └─Conv2d: 3-106                [8, 32, 256, 256]         9,216
|    |    └─BatchNorm2d: 3-107           [8, 32, 256, 256]         64
|    |    └─ReLU: 3-108                  [8, 32, 256, 256]         --
|    └─Conv2d: 2-36                      [8, 11, 256, 256]         363
==========================================================================================
Total params: 7,763,371
Trainable params: 7,763,371
Non-trainable params: 0
Total mult-adds (G): 13.65
==========================================================================================
Input size (MB): 12.00
Forward/backward pass size (MB): 2108.00
Params size (MB): 29.61
Estimated Total Size (MB): 2149.61
…
