…
=
Layer (type:depth-idx)                        Output Shape              Param #
===============================================================================================
├─FastSCNN: 1-1                               []                        --
├─FastSCNN: 1                                 []                        --
|    └─LearningToDownsample: 2-1              []                        --
|    └─LearningToDownsample: 2                []                        --
|    |    └─_ConvBNReLU: 3-1                  []                        928
├─FastSCNN: 1-2                               [16, 11, 512, 512]        --
├─FastSCNN: 1                                 []                        --
|    └─LearningToDownsample: 2-2              [16, 64, 64, 64]          --
|    └─LearningToDownsample: 2                []                        --
|    |    └─_ConvBNReLU: 3-2                  [16, 32, 255, 255]        --
|    |    └─_DSConv: 3-3                      [16, 48, 128, 128]        1,984
|    |    └─_DSConv: 3-4                      [16, 64, 64, 64]          3,728
|    └─GlobalFeatureExtractor: 2-3            [16, 128, 16, 16]         --
|    └─GlobalFeatureExtractor: 2              []                        --
|    |    └─Sequential: 3-5                   [16, 64, 32, 32]          162,816
|    |    └─Sequential: 3-6                   [16, 96, 16, 16]          303,168
|    |    └─Sequential: 3-7                   [16, 128, 16, 16]         550,464
|    |    └─PyramidPooling: 3-8               [16, 128, 16, 16]         49,664
|    └─FeatureFusionModule: 2-4               [16, 128, 64, 64]         --
|    └─FeatureFusionModule: 2                 []                        --
|    |    └─_DWConv: 3-9                      [16, 128, 64, 64]         1,408
|    |    └─Sequential: 3-10                  [16, 128, 64, 64]         16,768
|    |    └─Sequential: 3-11                  [16, 128, 64, 64]         8,576
|    |    └─ReLU: 3-12                        [16, 128, 64, 64]         --
|    └─Classifer: 2-5                         [16, 11, 64, 64]          --
|    └─Classifer: 2                           []                        --
|    |    └─_DSConv: 3-13                     [16, 128, 64, 64]         18,048
|    |    └─_DSConv: 3-14                     [16, 128, 64, 64]         18,048
|    |    └─Sequential: 3-15                  [16, 11, 64, 64]          1,419
|    └─LearningToDownsample: 2                []                        --
|    |    └─_DSConv: 3-16                     [16, 48, 128, 128]        --
|    |    └─_DSConv: 3-17                     [16, 64, 64, 64]          --
|    └─GlobalFeatureExtractor: 2-6            [16, 128, 16, 16]         --
|    └─GlobalFeatureExtractor: 2              []                        --
|    |    └─Sequential: 3-18                  [16, 64, 32, 32]          --
|    |    └─Sequential: 3-19                  [16, 96, 16, 16]          --
|    |    └─Sequential: 3-20                  [16, 128, 16, 16]         --
|    |    └─PyramidPooling: 3-21              [16, 128, 16, 16]         --
|    └─FeatureFusionModule: 2-7               [16, 128, 64, 64]         --
|    └─FeatureFusionModule: 2                 []                        --
|    |    └─_DWConv: 3-22                     [16, 128, 64, 64]         --
|    |    └─Sequential: 3-23                  [16, 128, 64, 64]         --
|    |    └─Sequential: 3-24                  [16, 128, 64, 64]         --
|    |    └─ReLU: 3-25                        [16, 128, 64, 64]         --
|    └─Classifer: 2-8                         [16, 11, 64, 64]          --
|    └─Classifer: 2                           []                        --
|    |    └─_DSConv: 3-26                     [16, 128, 64, 64]         --
|    |    └─_DSConv: 3-27                     [16, 128, 64, 64]         --
|    |    └─Sequential: 3-28                  [16, 11, 64, 64]          --
===============================================================================================
Total params: 1,137,019
Trainable params: 1,137,019
Non-trainable params: 0
Total mult-adds (M): 109.77
===============================================================================================
Input size (MB): 96.00
Forward/backward pass size (MB): 261.50
Params size (MB): 4.34
Estimated Total Size (MB): 361.84
…
