====================================================================================================
Layer (type:depth-idx)                             Output Shape              Param #
====================================================================================================
├─Context_Guided_Network: 1-2                      [16, 11, 256, 256]        --
├─Context_Guided_Network: 1                        []                        --
|    └─ConvBNPReLU: 2-1                            []                        --
|    └─ConvBNPReLU: 2                              []                        --
|    |    └─Conv2d: 3-1                            []                        --
├─Context_Guided_Network: 1-2                      [16, 11, 256, 256]        --
├─Context_Guided_Network: 1                        []                        --
|    └─ConvBNPReLU: 2-2                            [16, 32, 128, 128]        --
|    └─ConvBNPReLU: 2                              []                        --
|    |    └─Conv2d: 3-2                            [16, 32, 128, 128]        864
|    |    └─BatchNorm2d: 3-3                       [16, 32, 128, 128]        --
|    |    └─PReLU: 3-4                             [16, 32, 128, 128]        --
|    └─ConvBNPReLU: 2-3                            [16, 32, 128, 128]        --
|    └─ConvBNPReLU: 2                              []                        --
|    |    └─Conv2d: 3-5                            [16, 32, 128, 128]        --
|    |    └─BatchNorm2d: 3-6                       [16, 32, 128, 128]        --
|    |    └─PReLU: 3-7                             [16, 32, 128, 128]        --
|    └─ConvBNPReLU: 2-4                            [16, 32, 128, 128]        --
|    └─ConvBNPReLU: 2                              []                        --
|    |    └─Conv2d: 3-8                            [16, 32, 128, 128]        --
|    |    └─BatchNorm2d: 3-9                       [16, 32, 128, 128]        --
|    |    └─PReLU: 3-10                            [16, 32, 128, 128]        --
|    └─InputInjection: 2-5                         [16, 3, 128, 128]         --
|    └─InputInjection: 2-6                         [16, 3, 64, 64]           --
|    └─BNPReLU: 2-7                                [16, 35, 128, 128]        --
|    └─BNPReLU: 2                                  []                        --
|    |    └─BatchNorm2d: 3-11                      [16, 35, 128, 128]        --
|    |    └─PReLU: 3-12                            [16, 35, 128, 128]        --
|    └─ContextGuidedBlock_Down: 2-8                [16, 64, 64, 64]          --
|    └─ContextGuidedBlock_Down: 2                  []                        --
|    |    └─ConvBNPReLU: 3-13                      [16, 64, 64, 64]          --
|    |    └─ChannelWiseConv: 3-14                  [16, 64, 64, 64]          --
|    |    └─ChannelWiseDilatedConv: 3-15           [16, 64, 64, 64]          --
|    |    └─BatchNorm2d: 3-16                      [16, 128, 64, 64]         --
|    |    └─PReLU: 3-17                            [16, 128, 64, 64]         --
|    |    └─Conv: 3-18                             [16, 64, 64, 64]          --
|    |    └─FGlo: 3-19                             [16, 64, 64, 64]          --
|    └─ConvBNPReLU: 2                              []                        --
|    |    └─BatchNorm2d: 3-20                      [16, 32, 128, 128]        64
|    |    └─PReLU: 3-21                            [16, 32, 128, 128]        32
|    └─ConvBNPReLU: 2-9                            [16, 32, 128, 128]        --
|    └─ConvBNPReLU: 2                              []                        --
|    |    └─Conv2d: 3-22                           [16, 32, 128, 128]        9,216
|    |    └─BatchNorm2d: 3-23                      [16, 32, 128, 128]        64
|    └─ModuleList: 2                               []                        --
|    |    └─ContextGuidedBlock: 3-24               [16, 64, 64, 64]          --
|    └─ConvBNPReLU: 2                              []                        --
|    |    └─PReLU: 3-25                            [16, 32, 128, 128]        32
|    └─ConvBNPReLU: 2-10                           [16, 32, 128, 128]        --
|    └─ConvBNPReLU: 2                              []                        --
|    |    └─Conv2d: 3-26                           [16, 32, 128, 128]        9,216
|    |    └─BatchNorm2d: 3-27                      [16, 32, 128, 128]        64
|    |    └─PReLU: 3-28                            [16, 32, 128, 128]        32
|    └─InputInjection: 2-11                        [16, 3, 128, 128]         --
|    └─InputInjection: 2-12                        [16, 3, 64, 64]           --
|    └─BNPReLU: 2-13                               [16, 35, 128, 128]        --
|    └─BNPReLU: 2                                  []                        --
|    |    └─BatchNorm2d: 3-29                      [16, 35, 128, 128]        70
|    |    └─PReLU: 3-30                            [16, 35, 128, 128]        35
|    └─ContextGuidedBlock_Down: 2-14               [16, 64, 64, 64]          --
|    └─ContextGuidedBlock_Down: 2                  []                        --
|    |    └─ConvBNPReLU: 3-31                      [16, 64, 64, 64]          20,352
|    └─ModuleList: 2                               []                        --
|    |    └─ContextGuidedBlock: 3-32               [16, 64, 64, 64]          --
|    └─ContextGuidedBlock_Down: 2                  []                        --
|    |    └─ChannelWiseConv: 3-33                  [16, 64, 64, 64]          576
|    |    └─ChannelWiseDilatedConv: 3-34           [16, 64, 64, 64]          576
|    |    └─BatchNorm2d: 3-35                      [16, 128, 64, 64]         256
|    |    └─PReLU: 3-36                            [16, 128, 64, 64]         128
|    |    └─Conv: 3-37                             [16, 64, 64, 64]          8,192
|    |    └─FGlo: 3-38                             [16, 64, 64, 64]          1,096
|    └─BNPReLU: 2-15                               [16, 131, 64, 64]         --
|    └─BNPReLU: 2                                  []                        --
|    |    └─BatchNorm2d: 3-39                      [16, 131, 64, 64]         --
|    └─ModuleList: 2                               []                        --
|    |    └─ContextGuidedBlock: 3-40               [16, 64, 64, 64]          4,008
|    └─BNPReLU: 2                                  []                        --
|    |    └─PReLU: 3-41                            [16, 131, 64, 64]         --
|    └─ContextGuidedBlock_Down: 2-16               [16, 128, 32, 32]         --
|    └─ContextGuidedBlock_Down: 2                  []                        --
|    |    └─ConvBNPReLU: 3-42                      [16, 128, 32, 32]         --
|    |    └─ChannelWiseConv: 3-43                  [16, 128, 32, 32]         --
|    |    └─ChannelWiseDilatedConv: 3-44           [16, 128, 32, 32]         --
|    |    └─BatchNorm2d: 3-45                      [16, 256, 32, 32]         --
|    |    └─PReLU: 3-46                            [16, 256, 32, 32]         --
|    |    └─Conv: 3-47                             [16, 128, 32, 32]         --
|    └─ModuleList: 2                               []                        --
|    |    └─ContextGuidedBlock: 3-48               [16, 64, 64, 64]          4,008
|    └─ContextGuidedBlock_Down: 2                  []                        --
|    |    └─FGlo: 3-49                             [16, 128, 32, 32]         --
|    └─ModuleList: 2                               []                        --
|    |    └─ContextGuidedBlock: 3-50               [16, 128, 32, 32]         --
|    └─BNPReLU: 2-17                               [16, 131, 64, 64]         --
|    └─BNPReLU: 2                                  []                        --
|    |    └─BatchNorm2d: 3-51                      [16, 131, 64, 64]         262
|    |    └─PReLU: 3-52                            [16, 131, 64, 64]         131
|    └─ModuleList: 2                               []                        --
|    |    └─ContextGuidedBlock: 3-53               [16, 128, 32, 32]         --
|    └─ContextGuidedBlock_Down: 2-18               [16, 128, 32, 32]         --
|    └─ContextGuidedBlock_Down: 2                  []                        --
|    |    └─ConvBNPReLU: 3-54                      [16, 128, 32, 32]         151,296
|    |    └─ChannelWiseConv: 3-55                  [16, 128, 32, 32]         1,152
|    |    └─ChannelWiseDilatedConv: 3-56           [16, 128, 32, 32]         1,152
|    |    └─BatchNorm2d: 3-57                      [16, 256, 32, 32]         512
|    |    └─PReLU: 3-58                            [16, 256, 32, 32]         256
|    |    └─Conv: 3-59                             [16, 128, 32, 32]         32,768
|    |    └─FGlo: 3-60                             [16, 128, 32, 32]         2,184
|    └─ModuleList: 2                               []                        --
|    |    └─ContextGuidedBlock: 3-61               [16, 128, 32, 32]         --
|    |    └─ContextGuidedBlock: 3-62               [16, 128, 32, 32]         12,104
|    |    └─ContextGuidedBlock: 3-63               [16, 128, 32, 32]         --
|    |    └─ContextGuidedBlock: 3-64               [16, 128, 32, 32]         12,104
|    |    └─ContextGuidedBlock: 3-65               [16, 128, 32, 32]         --
|    |    └─ContextGuidedBlock: 3-66               [16, 128, 32, 32]         12,104
|    |    └─ContextGuidedBlock: 3-67               [16, 128, 32, 32]         --
|    |    └─ContextGuidedBlock: 3-68               [16, 128, 32, 32]         12,104
|    |    └─ContextGuidedBlock: 3-69               [16, 128, 32, 32]         --
|    |    └─ContextGuidedBlock: 3-70               [16, 128, 32, 32]         12,104
|    |    └─ContextGuidedBlock: 3-71               [16, 128, 32, 32]         --
|    |    └─ContextGuidedBlock: 3-72               [16, 128, 32, 32]         12,104
|    |    └─ContextGuidedBlock: 3-73               [16, 128, 32, 32]         --
|    |    └─ContextGuidedBlock: 3-74               [16, 128, 32, 32]         12,104
|    |    └─ContextGuidedBlock: 3-75               [16, 128, 32, 32]         --
|    |    └─ContextGuidedBlock: 3-76               [16, 128, 32, 32]         12,104
|    |    └─ContextGuidedBlock: 3-77               [16, 128, 32, 32]         --
|    |    └─ContextGuidedBlock: 3-78               [16, 128, 32, 32]         12,104
|    |    └─ContextGuidedBlock: 3-79               [16, 128, 32, 32]         --
|    |    └─ContextGuidedBlock: 3-80               [16, 128, 32, 32]         12,104
|    |    └─ContextGuidedBlock: 3-81               [16, 128, 32, 32]         --
|    |    └─ContextGuidedBlock: 3-82               [16, 128, 32, 32]         12,104
|    |    └─ContextGuidedBlock: 3-83               [16, 128, 32, 32]         --
|    |    └─ContextGuidedBlock: 3-84               [16, 128, 32, 32]         12,104
|    |    └─ContextGuidedBlock: 3-85               [16, 128, 32, 32]         --
|    |    └─ContextGuidedBlock: 3-86               [16, 128, 32, 32]         12,104
|    |    └─ContextGuidedBlock: 3-87               [16, 128, 32, 32]         --
|    |    └─ContextGuidedBlock: 3-88               [16, 128, 32, 32]         12,104
|    |    └─ContextGuidedBlock: 3-89               [16, 128, 32, 32]         --
|    |    └─ContextGuidedBlock: 3-90               [16, 128, 32, 32]         12,104
|    |    └─ContextGuidedBlock: 3-91               [16, 128, 32, 32]         --
|    |    └─ContextGuidedBlock: 3-92               [16, 128, 32, 32]         12,104
|    |    └─ContextGuidedBlock: 3-93               [16, 128, 32, 32]         --
|    |    └─ContextGuidedBlock: 3-94               [16, 128, 32, 32]         12,104
|    |    └─ContextGuidedBlock: 3-95               [16, 128, 32, 32]         --
|    |    └─ContextGuidedBlock: 3-96               [16, 128, 32, 32]         12,104
|    |    └─ContextGuidedBlock: 3-97               [16, 128, 32, 32]         12,104
|    └─BNPReLU: 2-19                               [16, 256, 32, 32]         --
|    └─BNPReLU: 2                                  []                        --
|    |    └─BatchNorm2d: 3-98                      [16, 256, 32, 32]         --
|    |    └─PReLU: 3-99                            [16, 256, 32, 32]         --
|    └─Sequential: 2-20                            [16, 11, 32, 32]          --
|    └─Sequential: 2                               []                        --
|    |    └─Conv: 3-100                            [16, 11, 32, 32]          --
|    └─ModuleList: 2                               []                        --
|    |    └─ContextGuidedBlock: 3-101              [16, 128, 32, 32]         12,104
|    └─BNPReLU: 2-21                               [16, 256, 32, 32]         --
|    └─BNPReLU: 2                                  []                        --
|    |    └─BatchNorm2d: 3-102                     [16, 256, 32, 32]         512
|    |    └─PReLU: 3-103                           [16, 256, 32, 32]         256
|    └─Sequential: 2-22                            [16, 11, 32, 32]          --
|    └─Sequential: 2                               []                        --
|    |    └─Conv: 3-104                            [16, 11, 32, 32]          2,816
====================================================================================================
Total params: 494,258
Trainable params: 494,258
Non-trainable params: 0
Total mult-adds (M): 645.44
====================================================================================================
Input size (MB): 24.00
Forward/backward pass size (MB): 1392.38
Params size (MB): 1.89
Estimated Total Size (MB): 1418.26
…
