…
=========================================
Layer (type:depth-idx)                   Output Shape              Param #
==========================================================================================
├─UNet: 1-1                              []                        --
├─UNet: 1                                []                        --
|    └─Sequential: 2-1                   []                        --
|    └─Sequential: 2                     []                        --
|    |    └─Conv2d: 3-1                  []                        864
├─UNet: 1-2                              [16, 11, 256, 256]        --
├─UNet: 1                                []                        --
|    └─Sequential: 2-2                   [16, 32, 256, 256]        --
|    └─Sequential: 2                     []                        --
|    |    └─Conv2d: 3-2                  [16, 32, 256, 256]        --
|    |    └─BatchNorm2d: 3-3             [16, 32, 256, 256]        64
|    |    └─ReLU: 3-4                    [16, 32, 256, 256]        --
|    |    └─Conv2d: 3-5                  [16, 32, 256, 256]        9,216
|    |    └─BatchNorm2d: 3-6             [16, 32, 256, 256]        64
|    |    └─ReLU: 3-7                    [16, 32, 256, 256]        --
|    └─MaxPool2d: 2-3                    []                        --
|    └─Sequential: 2                     []                        --
|    |    └─BatchNorm2d: 3-8             [16, 32, 256, 256]        --
|    |    └─ReLU: 3-9                    [16, 32, 256, 256]        --
|    |    └─Conv2d: 3-10                 [16, 32, 256, 256]        --
|    |    └─BatchNorm2d: 3-11            [16, 32, 256, 256]        --
|    |    └─ReLU: 3-12                   [16, 32, 256, 256]        --
|    └─MaxPool2d: 2-4                    [16, 32, 128, 128]        --
|    └─Sequential: 2-5                   []                        --
|    └─Sequential: 2                     []                        --
|    |    └─Conv2d: 3-13                 []                        18,432
|    └─Sequential: 2-6                   [16, 64, 128, 128]        --
|    └─Sequential: 2                     []                        --
|    |    └─Conv2d: 3-14                 [16, 64, 128, 128]        --
|    |    └─BatchNorm2d: 3-15            []                        128
|    |    └─BatchNorm2d: 3-16            [16, 64, 128, 128]        --
|    |    └─ReLU: 3-17                   []                        --
|    |    └─ReLU: 3-18                   [16, 64, 128, 128]        --
|    |    └─Conv2d: 3-19                 []                        36,864
|    |    └─Conv2d: 3-20                 [16, 64, 128, 128]        --
|    |    └─BatchNorm2d: 3-21            [16, 64, 128, 128]        --
|    |    └─ReLU: 3-22                   [16, 64, 128, 128]        --
|    └─MaxPool2d: 2-7                    [16, 64, 64, 64]          --
|    └─Sequential: 2-8                   []                        --
|    └─Sequential: 2                     []                        --
|    |    └─Conv2d: 3-23                 [16, 128, 64, 64]         --
|    └─Sequential: 2                     []                        --
|    |    └─BatchNorm2d: 3-24            [16, 64, 128, 128]        128
|    └─Sequential: 2                     []                        --
|    |    └─BatchNorm2d: 3-25            [16, 128, 64, 64]         --
|    └─Sequential: 2                     []                        --
|    |    └─ReLU: 3-26                   [16, 64, 128, 128]        --
|    └─Sequential: 2                     []                        --
|    |    └─ReLU: 3-27                   [16, 128, 64, 64]         --
|    └─MaxPool2d: 2-9                    [16, 64, 64, 64]          --
|    └─Sequential: 2                     []                        --
|    |    └─Conv2d: 3-28                 [16, 128, 64, 64]         --
|    └─Sequential: 2-10                  [16, 128, 64, 64]         --
|    └─Sequential: 2                     []                        --
|    |    └─Conv2d: 3-29                 [16, 128, 64, 64]         73,728
|    |    └─BatchNorm2d: 3-30            [16, 128, 64, 64]         --
|    |    └─BatchNorm2d: 3-31            [16, 128, 64, 64]         256
|    |    └─ReLU: 3-32                   [16, 128, 64, 64]         --
|    |    └─ReLU: 3-33                   [16, 128, 64, 64]         --
|    └─MaxPool2d: 2-11                   [16, 128, 32, 32]         --
|    └─Sequential: 2                     []                        --
|    |    └─Conv2d: 3-34                 [16, 128, 64, 64]         147,456
|    └─Sequential: 2-12                  []                        --
|    └─Sequential: 2                     []                        --
|    |    └─Conv2d: 3-35                 [16, 256, 32, 32]         --
|    └─Sequential: 2                     []                        --
|    |    └─BatchNorm2d: 3-36            [16, 128, 64, 64]         256
|    └─Sequential: 2                     []                        --
|    |    └─BatchNorm2d: 3-37            [16, 256, 32, 32]         --
|    └─Sequential: 2                     []                        --
|    |    └─ReLU: 3-38                   [16, 128, 64, 64]         --
|    └─Sequential: 2                     []                        --
|    |    └─ReLU: 3-39                   [16, 256, 32, 32]         --
|    └─MaxPool2d: 2-13                   [16, 128, 32, 32]         --
|    └─Sequential: 2                     []                        --
|    |    └─Conv2d: 3-40                 [16, 256, 32, 32]         --
|    └─Sequential: 2-14                  [16, 256, 32, 32]         --
|    └─Sequential: 2                     []                        --
|    |    └─Conv2d: 3-41                 [16, 256, 32, 32]         294,912
|    |    └─BatchNorm2d: 3-42            [16, 256, 32, 32]         --
|    |    └─BatchNorm2d: 3-43            [16, 256, 32, 32]         512
|    |    └─ReLU: 3-44                   [16, 256, 32, 32]         --
|    |    └─ReLU: 3-45                   [16, 256, 32, 32]         --
|    └─MaxPool2d: 2-15                   [16, 256, 16, 16]         --
|    └─Sequential: 2                     []                        --
|    |    └─Conv2d: 3-46                 [16, 256, 32, 32]         589,824
|    └─Sequential: 2-16                  []                        --
|    └─Sequential: 2                     []                        --
|    |    └─Conv2d: 3-47                 [16, 512, 16, 16]         --
|    └─Sequential: 2                     []                        --
|    |    └─BatchNorm2d: 3-48            [16, 256, 32, 32]         512
|    └─Sequential: 2                     []                        --
|    |    └─BatchNorm2d: 3-49            [16, 512, 16, 16]         --
|    └─Sequential: 2                     []                        --
|    |    └─ReLU: 3-50                   [16, 256, 32, 32]         --
|    └─Sequential: 2                     []                        --
|    |    └─ReLU: 3-51                   [16, 512, 16, 16]         --
|    └─MaxPool2d: 2-17                   [16, 256, 16, 16]         --
|    └─Sequential: 2                     []                        --
|    |    └─Conv2d: 3-52                 [16, 512, 16, 16]         --
|    └─Sequential: 2-18                  [16, 512, 16, 16]         --
|    └─Sequential: 2                     []                        --
|    |    └─Conv2d: 3-53                 [16, 512, 16, 16]         1,179,648
|    |    └─BatchNorm2d: 3-54            [16, 512, 16, 16]         1,024
|    |    └─BatchNorm2d: 3-55            [16, 512, 16, 16]         --
|    |    └─ReLU: 3-56                   [16, 512, 16, 16]         --
|    |    └─ReLU: 3-57                   [16, 512, 16, 16]         --
|    |    └─Conv2d: 3-58                 [16, 512, 16, 16]         2,359,296
|    └─ConvTranspose2d: 2-19             []                        --
|    └─Sequential: 2                     []                        --
|    |    └─BatchNorm2d: 3-59            [16, 512, 16, 16]         1,024
|    |    └─ReLU: 3-60                   [16, 512, 16, 16]         --
|    └─ConvTranspose2d: 2-20             [16, 256, 32, 32]         524,544
|    └─Sequential: 2-21                  []                        --
|    └─Sequential: 2                     []                        --
|    |    └─Conv2d: 3-61                 []                        --
|    └─Sequential: 2-22                  [16, 256, 32, 32]         --
|    └─Sequential: 2                     []                        --
|    |    └─Conv2d: 3-62                 [16, 256, 32, 32]         1,179,648
|    |    └─BatchNorm2d: 3-63            []                        --
|    |    └─BatchNorm2d: 3-64            [16, 256, 32, 32]         512
|    |    └─ReLU: 3-65                   []                        --
|    |    └─ReLU: 3-66                   [16, 256, 32, 32]         --
|    |    └─Conv2d: 3-67                 []                        --
|    |    └─Conv2d: 3-68                 [16, 256, 32, 32]         589,824
|    |    └─BatchNorm2d: 3-69            []                        --
|    |    └─BatchNorm2d: 3-70            [16, 256, 32, 32]         512
|    |    └─ReLU: 3-71                   []                        --
|    |    └─ReLU: 3-72                   [16, 256, 32, 32]         --
|    └─ConvTranspose2d: 2-23             []                        --
|    └─ConvTranspose2d: 2-24             [16, 128, 64, 64]         131,200
|    └─Sequential: 2-25                  []                        --
|    └─Sequential: 2                     []                        --
|    |    └─Conv2d: 3-73                 []                        294,912
|    └─Sequential: 2-26                  [16, 128, 64, 64]         --
|    └─Sequential: 2                     []                        --
|    |    └─Conv2d: 3-74                 [16, 128, 64, 64]         --
|    |    └─BatchNorm2d: 3-75            []                        256
|    |    └─BatchNorm2d: 3-76            [16, 128, 64, 64]         --
|    |    └─ReLU: 3-77                   []                        --
|    |    └─ReLU: 3-78                   [16, 128, 64, 64]         --
|    |    └─Conv2d: 3-79                 []                        147,456
|    |    └─Conv2d: 3-80                 [16, 128, 64, 64]         --
|    |    └─BatchNorm2d: 3-81            []                        256
|    |    └─BatchNorm2d: 3-82            [16, 128, 64, 64]         --
|    |    └─ReLU: 3-83                   []                        --
|    |    └─ReLU: 3-84                   [16, 128, 64, 64]         --
|    └─ConvTranspose2d: 2-27             []                        32,832
|    └─ConvTranspose2d: 2-28             [16, 64, 128, 128]        --
|    └─Sequential: 2-29                  []                        --
|    └─Sequential: 2                     []                        --
|    |    └─Conv2d: 3-85                 [16, 64, 128, 128]        73,728
|    |    └─BatchNorm2d: 3-86            [16, 64, 128, 128]        128
|    └─Sequential: 2-30                  [16, 64, 128, 128]        --
|    └─Sequential: 2                     []                        --
|    |    └─Conv2d: 3-87                 [16, 64, 128, 128]        --
|    |    └─ReLU: 3-88                   [16, 64, 128, 128]        --
|    |    └─BatchNorm2d: 3-89            [16, 64, 128, 128]        --
|    |    └─Conv2d: 3-90                 [16, 64, 128, 128]        36,864
|    |    └─BatchNorm2d: 3-91            [16, 64, 128, 128]        128
|    |    └─ReLU: 3-92                   [16, 64, 128, 128]        --
|    |    └─ReLU: 3-93                   [16, 64, 128, 128]        --
|    |    └─Conv2d: 3-94                 [16, 64, 128, 128]        --
|    └─ConvTranspose2d: 2-31             [16, 32, 256, 256]        8,224
|    └─Sequential: 2                     []                        --
|    |    └─BatchNorm2d: 3-95            [16, 64, 128, 128]        --
|    |    └─ReLU: 3-96                   [16, 64, 128, 128]        --
|    └─Sequential: 2-32                  []                        --
|    └─Sequential: 2                     []                        --
|    |    └─Conv2d: 3-97                 [16, 32, 256, 256]        18,432
|    └─ConvTranspose2d: 2-33             [16, 32, 256, 256]        --
|    └─Sequential: 2                     []                        --
|    |    └─BatchNorm2d: 3-98            [16, 32, 256, 256]        64
|    |    └─ReLU: 3-99                   [16, 32, 256, 256]        --
|    |    └─Conv2d: 3-100                [16, 32, 256, 256]        9,216
|    └─Sequential: 2-34                  [16, 32, 256, 256]        --
|    └─Sequential: 2                     []                        --
|    |    └─Conv2d: 3-101                [16, 32, 256, 256]        --
|    |    └─BatchNorm2d: 3-102           [16, 32, 256, 256]        64
|    |    └─BatchNorm2d: 3-103           [16, 32, 256, 256]        --
|    |    └─ReLU: 3-104                  [16, 32, 256, 256]        --
|    └─Conv2d: 2-35                      [16, 11, 256, 256]        363
|    └─Sequential: 2                     []                        --
|    |    └─ReLU: 3-105                  [16, 32, 256, 256]        --
|    |    └─Conv2d: 3-106                [16, 32, 256, 256]        --
|    |    └─BatchNorm2d: 3-107           [16, 32, 256, 256]        --
|    |    └─ReLU: 3-108                  [16, 32, 256, 256]        --
|    └─Conv2d: 2-36                      [16, 11, 256, 256]        --
==========================================================================================
Total params: 7,763,371
Trainable params: 7,763,371
Non-trainable params: 0
Total mult-adds (G): 13.29
==========================================================================================
Input size (MB): 24.00
Forward/backward pass size (MB): 3448.00
Params size (MB): 29.61
Estimated Total Size (MB): 3501.61
…
