===============================================================================================
Layer (type:depth-idx)                        Output Shape              Param #
===============================================================================================
├─ConvBNPReLU: 1-1                            [32, 32, 128, 128]        --
|    └─Conv2d: 2-1                            [32, 32, 128, 128]        864
|    └─BatchNorm2d: 2-2                       [32, 32, 128, 128]        64
|    └─PReLU: 2-3                             [32, 32, 128, 128]        32
├─ConvBNPReLU: 1-2                            [32, 32, 128, 128]        --
|    └─Conv2d: 2-4                            [32, 32, 128, 128]        9,216
|    └─BatchNorm2d: 2-5                       [32, 32, 128, 128]        64
|    └─PReLU: 2-6                             [32, 32, 128, 128]        32
├─ConvBNPReLU: 1-3                            [32, 32, 128, 128]        --
|    └─Conv2d: 2-7                            [32, 32, 128, 128]        9,216
|    └─BatchNorm2d: 2-8                       [32, 32, 128, 128]        64
|    └─PReLU: 2-9                             [32, 32, 128, 128]        32
├─InputInjection: 1-4                         [32, 3, 128, 128]         --
|    └─ModuleList: 2                          []                        --
|    |    └─AvgPool2d: 3-1                    [32, 3, 128, 128]         --
├─InputInjection: 1-5                         [32, 3, 64, 64]           --
|    └─ModuleList: 2                          []                        --
|    |    └─AvgPool2d: 3-2                    [32, 3, 128, 128]         --
|    |    └─AvgPool2d: 3-3                    [32, 3, 64, 64]           --
├─BNPReLU: 1-6                                [32, 35, 128, 128]        --
|    └─BatchNorm2d: 2-10                      [32, 35, 128, 128]        70
|    └─PReLU: 2-11                            [32, 35, 128, 128]        35
├─ContextGuidedBlock_Down: 1-7                [32, 64, 64, 64]          --
|    └─ConvBNPReLU: 2-12                      [32, 64, 64, 64]          --
|    |    └─Conv2d: 3-4                       [32, 64, 64, 64]          20,160
|    |    └─BatchNorm2d: 3-5                  [32, 64, 64, 64]          128
|    |    └─PReLU: 3-6                        [32, 64, 64, 64]          64
|    └─ChannelWiseConv: 2-13                  [32, 64, 64, 64]          --
|    |    └─Conv2d: 3-7                       [32, 64, 64, 64]          576
|    └─ChannelWiseDilatedConv: 2-14           [32, 64, 64, 64]          --
|    |    └─Conv2d: 3-8                       [32, 64, 64, 64]          576
|    └─BatchNorm2d: 2-15                      [32, 128, 64, 64]         256
|    └─PReLU: 2-16                            [32, 128, 64, 64]         128
|    └─Conv: 2-17                             [32, 64, 64, 64]          --
|    |    └─Conv2d: 3-9                       [32, 64, 64, 64]          8,192
|    └─FGlo: 2-18                             [32, 64, 64, 64]          --
|    |    └─AdaptiveAvgPool2d: 3-10           [32, 64, 1, 1]            --
|    |    └─Sequential: 3-11                  [32, 64]                  1,096
├─ModuleList: 1                               []                        --
|    └─ContextGuidedBlock: 2-19               [32, 64, 64, 64]          --
|    |    └─ConvBNPReLU: 3-12                 [32, 32, 64, 64]          2,144
|    |    └─ChannelWiseConv: 3-13             [32, 32, 64, 64]          288
|    |    └─ChannelWiseDilatedConv: 3-14      [32, 32, 64, 64]          288
|    |    └─BNPReLU: 3-15                     [32, 64, 64, 64]          192
|    |    └─FGlo: 3-16                        [32, 64, 64, 64]          1,096
|    └─ContextGuidedBlock: 2-20               [32, 64, 64, 64]          --
|    |    └─ConvBNPReLU: 3-17                 [32, 32, 64, 64]          2,144
|    |    └─ChannelWiseConv: 3-18             [32, 32, 64, 64]          288
|    |    └─ChannelWiseDilatedConv: 3-19      [32, 32, 64, 64]          288
|    |    └─BNPReLU: 3-20                     [32, 64, 64, 64]          192
|    |    └─FGlo: 3-21                        [32, 64, 64, 64]          1,096
├─BNPReLU: 1-8                                [32, 131, 64, 64]         --
|    └─BatchNorm2d: 2-21                      [32, 131, 64, 64]         262
|    └─PReLU: 2-22                            [32, 131, 64, 64]         131
├─ContextGuidedBlock_Down: 1-9                [32, 128, 32, 32]         --
|    └─ConvBNPReLU: 2-23                      [32, 128, 32, 32]         --
|    |    └─Conv2d: 3-22                      [32, 128, 32, 32]         150,912
|    |    └─BatchNorm2d: 3-23                 [32, 128, 32, 32]         256
|    |    └─PReLU: 3-24                       [32, 128, 32, 32]         128
|    └─ChannelWiseConv: 2-24                  [32, 128, 32, 32]         --
|    |    └─Conv2d: 3-25                      [32, 128, 32, 32]         1,152
|    └─ChannelWiseDilatedConv: 2-25           [32, 128, 32, 32]         --
|    |    └─Conv2d: 3-26                      [32, 128, 32, 32]         1,152
|    └─BatchNorm2d: 2-26                      [32, 256, 32, 32]         512
|    └─PReLU: 2-27                            [32, 256, 32, 32]         256
|    └─Conv: 2-28                             [32, 128, 32, 32]         --
|    |    └─Conv2d: 3-27                      [32, 128, 32, 32]         32,768
|    └─FGlo: 2-29                             [32, 128, 32, 32]         --
|    |    └─AdaptiveAvgPool2d: 3-28           [32, 128, 1, 1]           --
|    |    └─Sequential: 3-29                  [32, 128]                 2,184
├─ModuleList: 1                               []                        --
|    └─ContextGuidedBlock: 2-30               [32, 128, 32, 32]         --
|    |    └─ConvBNPReLU: 3-30                 [32, 64, 32, 32]          8,384
|    |    └─ChannelWiseConv: 3-31             [32, 64, 32, 32]          576
|    |    └─ChannelWiseDilatedConv: 3-32      [32, 64, 32, 32]          576
|    |    └─BNPReLU: 3-33                     [32, 128, 32, 32]         384
|    |    └─FGlo: 3-34                        [32, 128, 32, 32]         2,184
|    └─ContextGuidedBlock: 2-31               [32, 128, 32, 32]         --
|    |    └─ConvBNPReLU: 3-35                 [32, 64, 32, 32]          8,384
|    |    └─ChannelWiseConv: 3-36             [32, 64, 32, 32]          576
|    |    └─ChannelWiseDilatedConv: 3-37      [32, 64, 32, 32]          576
|    |    └─BNPReLU: 3-38                     [32, 128, 32, 32]         384
|    |    └─FGlo: 3-39                        [32, 128, 32, 32]         2,184
|    └─ContextGuidedBlock: 2-32               [32, 128, 32, 32]         --
|    |    └─ConvBNPReLU: 3-40                 [32, 64, 32, 32]          8,384
|    |    └─ChannelWiseConv: 3-41             [32, 64, 32, 32]          576
|    |    └─ChannelWiseDilatedConv: 3-42      [32, 64, 32, 32]          576
|    |    └─BNPReLU: 3-43                     [32, 128, 32, 32]         384
|    |    └─FGlo: 3-44                        [32, 128, 32, 32]         2,184
|    └─ContextGuidedBlock: 2-33               [32, 128, 32, 32]         --
|    |    └─ConvBNPReLU: 3-45                 [32, 64, 32, 32]          8,384
|    |    └─ChannelWiseConv: 3-46             [32, 64, 32, 32]          576
|    |    └─ChannelWiseDilatedConv: 3-47      [32, 64, 32, 32]          576
|    |    └─BNPReLU: 3-48                     [32, 128, 32, 32]         384
|    |    └─FGlo: 3-49                        [32, 128, 32, 32]         2,184
|    └─ContextGuidedBlock: 2-34               [32, 128, 32, 32]         --
|    |    └─ConvBNPReLU: 3-50                 [32, 64, 32, 32]          8,384
|    |    └─ChannelWiseConv: 3-51             [32, 64, 32, 32]          576
|    |    └─ChannelWiseDilatedConv: 3-52      [32, 64, 32, 32]          576
|    |    └─BNPReLU: 3-53                     [32, 128, 32, 32]         384
|    |    └─FGlo: 3-54                        [32, 128, 32, 32]         2,184
|    └─ContextGuidedBlock: 2-35               [32, 128, 32, 32]         --
|    |    └─ConvBNPReLU: 3-55                 [32, 64, 32, 32]          8,384
|    |    └─ChannelWiseConv: 3-56             [32, 64, 32, 32]          576
|    |    └─ChannelWiseDilatedConv: 3-57      [32, 64, 32, 32]          576
|    |    └─BNPReLU: 3-58                     [32, 128, 32, 32]         384
|    |    └─FGlo: 3-59                        [32, 128, 32, 32]         2,184
|    └─ContextGuidedBlock: 2-36               [32, 128, 32, 32]         --
|    |    └─ConvBNPReLU: 3-60                 [32, 64, 32, 32]          8,384
|    |    └─ChannelWiseConv: 3-61             [32, 64, 32, 32]          576
|    |    └─ChannelWiseDilatedConv: 3-62      [32, 64, 32, 32]          576
|    |    └─BNPReLU: 3-63                     [32, 128, 32, 32]         384
|    |    └─FGlo: 3-64                        [32, 128, 32, 32]         2,184
|    └─ContextGuidedBlock: 2-37               [32, 128, 32, 32]         --
|    |    └─ConvBNPReLU: 3-65                 [32, 64, 32, 32]          8,384
|    |    └─ChannelWiseConv: 3-66             [32, 64, 32, 32]          576
|    |    └─ChannelWiseDilatedConv: 3-67      [32, 64, 32, 32]          576
|    |    └─BNPReLU: 3-68                     [32, 128, 32, 32]         384
|    |    └─FGlo: 3-69                        [32, 128, 32, 32]         2,184
|    └─ContextGuidedBlock: 2-38               [32, 128, 32, 32]         --
|    |    └─ConvBNPReLU: 3-70                 [32, 64, 32, 32]          8,384
|    |    └─ChannelWiseConv: 3-71             [32, 64, 32, 32]          576
|    |    └─ChannelWiseDilatedConv: 3-72      [32, 64, 32, 32]          576
|    |    └─BNPReLU: 3-73                     [32, 128, 32, 32]         384
|    |    └─FGlo: 3-74                        [32, 128, 32, 32]         2,184
|    └─ContextGuidedBlock: 2-39               [32, 128, 32, 32]         --
|    |    └─ConvBNPReLU: 3-75                 [32, 64, 32, 32]          8,384
|    |    └─ChannelWiseConv: 3-76             [32, 64, 32, 32]          576
|    |    └─ChannelWiseDilatedConv: 3-77      [32, 64, 32, 32]          576
|    |    └─BNPReLU: 3-78                     [32, 128, 32, 32]         384
|    |    └─FGlo: 3-79                        [32, 128, 32, 32]         2,184
|    └─ContextGuidedBlock: 2-40               [32, 128, 32, 32]         --
|    |    └─ConvBNPReLU: 3-80                 [32, 64, 32, 32]          8,384
|    |    └─ChannelWiseConv: 3-81             [32, 64, 32, 32]          576
|    |    └─ChannelWiseDilatedConv: 3-82      [32, 64, 32, 32]          576
|    |    └─BNPReLU: 3-83                     [32, 128, 32, 32]         384
|    |    └─FGlo: 3-84                        [32, 128, 32, 32]         2,184
|    └─ContextGuidedBlock: 2-41               [32, 128, 32, 32]         --
|    |    └─ConvBNPReLU: 3-85                 [32, 64, 32, 32]          8,384
|    |    └─ChannelWiseConv: 3-86             [32, 64, 32, 32]          576
|    |    └─ChannelWiseDilatedConv: 3-87      [32, 64, 32, 32]          576
|    |    └─BNPReLU: 3-88                     [32, 128, 32, 32]         384
|    |    └─FGlo: 3-89                        [32, 128, 32, 32]         2,184
|    └─ContextGuidedBlock: 2-42               [32, 128, 32, 32]         --
|    |    └─ConvBNPReLU: 3-90                 [32, 64, 32, 32]          8,384
|    |    └─ChannelWiseConv: 3-91             [32, 64, 32, 32]          576
|    |    └─ChannelWiseDilatedConv: 3-92      [32, 64, 32, 32]          576
|    |    └─BNPReLU: 3-93                     [32, 128, 32, 32]         384
|    |    └─FGlo: 3-94                        [32, 128, 32, 32]         2,184
|    └─ContextGuidedBlock: 2-43               [32, 128, 32, 32]         --
|    |    └─ConvBNPReLU: 3-95                 [32, 64, 32, 32]          8,384
|    |    └─ChannelWiseConv: 3-96             [32, 64, 32, 32]          576
|    |    └─ChannelWiseDilatedConv: 3-97      [32, 64, 32, 32]          576
|    |    └─BNPReLU: 3-98                     [32, 128, 32, 32]         384
|    |    └─FGlo: 3-99                        [32, 128, 32, 32]         2,184
|    └─ContextGuidedBlock: 2-44               [32, 128, 32, 32]         --
|    |    └─ConvBNPReLU: 3-100                [32, 64, 32, 32]          8,384
|    |    └─ChannelWiseConv: 3-101            [32, 64, 32, 32]          576
|    |    └─ChannelWiseDilatedConv: 3-102     [32, 64, 32, 32]          576
|    |    └─BNPReLU: 3-103                    [32, 128, 32, 32]         384
|    |    └─FGlo: 3-104                       [32, 128, 32, 32]         2,184
|    └─ContextGuidedBlock: 2-45               [32, 128, 32, 32]         --
|    |    └─ConvBNPReLU: 3-105                [32, 64, 32, 32]          8,384
|    |    └─ChannelWiseConv: 3-106            [32, 64, 32, 32]          576
|    |    └─ChannelWiseDilatedConv: 3-107     [32, 64, 32, 32]          576
|    |    └─BNPReLU: 3-108                    [32, 128, 32, 32]         384
|    |    └─FGlo: 3-109                       [32, 128, 32, 32]         2,184
|    └─ContextGuidedBlock: 2-46               [32, 128, 32, 32]         --
|    |    └─ConvBNPReLU: 3-110                [32, 64, 32, 32]          8,384
|    |    └─ChannelWiseConv: 3-111            [32, 64, 32, 32]          576
|    |    └─ChannelWiseDilatedConv: 3-112     [32, 64, 32, 32]          576
|    |    └─BNPReLU: 3-113                    [32, 128, 32, 32]         384
|    |    └─FGlo: 3-114                       [32, 128, 32, 32]         2,184
|    └─ContextGuidedBlock: 2-47               [32, 128, 32, 32]         --
|    |    └─ConvBNPReLU: 3-115                [32, 64, 32, 32]          8,384
|    |    └─ChannelWiseConv: 3-116            [32, 64, 32, 32]          576
|    |    └─ChannelWiseDilatedConv: 3-117     [32, 64, 32, 32]          576
|    |    └─BNPReLU: 3-118                    [32, 128, 32, 32]         384
|    |    └─FGlo: 3-119                       [32, 128, 32, 32]         2,184
|    └─ContextGuidedBlock: 2-48               [32, 128, 32, 32]         --
|    |    └─ConvBNPReLU: 3-120                [32, 64, 32, 32]          8,384
|    |    └─ChannelWiseConv: 3-121            [32, 64, 32, 32]          576
|    |    └─ChannelWiseDilatedConv: 3-122     [32, 64, 32, 32]          576
|    |    └─BNPReLU: 3-123                    [32, 128, 32, 32]         384
|    |    └─FGlo: 3-124                       [32, 128, 32, 32]         2,184
|    └─ContextGuidedBlock: 2-49               [32, 128, 32, 32]         --
|    |    └─ConvBNPReLU: 3-125                [32, 64, 32, 32]          8,384
|    |    └─ChannelWiseConv: 3-126            [32, 64, 32, 32]          576
|    |    └─ChannelWiseDilatedConv: 3-127     [32, 64, 32, 32]          576
|    |    └─BNPReLU: 3-128                    [32, 128, 32, 32]         384
|    |    └─FGlo: 3-129                       [32, 128, 32, 32]         2,184
├─BNPReLU: 1-10                               [32, 256, 32, 32]         --
|    └─BatchNorm2d: 2-50                      [32, 256, 32, 32]         512
|    └─PReLU: 2-51                            [32, 256, 32, 32]         256
├─Sequential: 1-11                            [32, 11, 32, 32]          --
|    └─Conv: 2-52                             [32, 11, 32, 32]          --
|    |    └─Conv2d: 3-130                     [32, 11, 32, 32]          2,816
===============================================================================================
Total params: 494,258
Trainable params: 494,258
Non-trainable params: 0
Total mult-adds (M): 844.20
===============================================================================================
Input size (MB): 24.00
Forward/backward pass size (MB): 6240.80
Params size (MB): 1.89
Estimated Total Size (MB): 6266.69
…
