===============================================================================================
Layer (type:depth-idx)                        Output Shape              Param #
===============================================================================================
├─Encoder: 1-1                                [32, 128, 32, 32]         --
|    └─DownsamplerBlock: 2-1                  [32, 32, 128, 128]        --
|    |    └─MaxPool2d: 3-1                    [32, 3, 128, 128]         --
|    |    └─Conv2d: 3-2                       [32, 29, 128, 128]        812
|    |    └─BatchNorm2d: 3-3                  [32, 32, 128, 128]        64
|    |    └─ReLU: 3-4                         [32, 32, 128, 128]        --
|    └─ModuleList: 2                          []                        --
|    |    └─SS_nbt_module: 3-5                [32, 32, 128, 128]        6,400
|    |    └─SS_nbt_module: 3-6                [32, 32, 128, 128]        6,400
|    |    └─SS_nbt_module: 3-7                [32, 32, 128, 128]        6,400
|    |    └─DownsamplerBlock: 3-8             [32, 64, 64, 64]          9,376
|    |    └─SS_nbt_module: 3-9                [32, 64, 64, 64]          25,088
|    |    └─SS_nbt_module: 3-10               [32, 64, 64, 64]          25,088
|    |    └─DownsamplerBlock: 3-11            [32, 128, 32, 32]         37,184
|    |    └─SS_nbt_module: 3-12               [32, 128, 32, 32]         99,328
|    |    └─SS_nbt_module: 3-13               [32, 128, 32, 32]         99,328
|    |    └─SS_nbt_module: 3-14               [32, 128, 32, 32]         99,328
|    |    └─SS_nbt_module: 3-15               [32, 128, 32, 32]         99,328
|    |    └─SS_nbt_module: 3-16               [32, 128, 32, 32]         99,328
|    |    └─SS_nbt_module: 3-17               [32, 128, 32, 32]         99,328
|    |    └─SS_nbt_module: 3-18               [32, 128, 32, 32]         99,328
|    |    └─SS_nbt_module: 3-19               [32, 128, 32, 32]         99,328
├─Decoder: 1                                  []                        --
|    └─APN_Module: 2-2                        [32, 11, 32, 32]          --
|    |    └─Sequential: 3-20                  [32, 11, 1, 1]            1,441
|    |    └─Sequential: 3-21                  [32, 11, 32, 32]          1,441
|    |    └─Conv2dBnRelu: 3-22                [32, 1, 16, 16]           6,275
|    |    └─Conv2dBnRelu: 3-23                [32, 1, 8, 8]             28
|    |    └─Sequential: 3-24                  [32, 1, 4, 4]             24
|    |    └─Conv2dBnRelu: 3-25                [32, 1, 8, 8]             28
|    |    └─Conv2dBnRelu: 3-26                [32, 1, 16, 16]           52
===============================================================================================
Total params: 920,725
Trainable params: 920,725
Non-trainable params: 0
Total mult-adds (G): 1.40
===============================================================================================
Input size (MB): 24.00
Forward/backward pass size (MB): 4996.00
Params size (MB): 3.51
Estimated Total Size (MB): 5023.51
===============================================================================================
(cv) francescobaraldi@MacBook-Pro-di-Francesco deep-seasonal-color-analysis-system % python test.py
==========================================================================================
Layer (type:depth-idx)                   Output Shape              Param #
==========================================================================================
├─Sequential: 1-1                        [32, 32, 256, 256]        --
|    └─Conv2d: 2-1                       [32, 32, 256, 256]        864
|    └─BatchNorm2d: 2-2                  [32, 32, 256, 256]        64
|    └─ReLU: 2-3                         [32, 32, 256, 256]        --
|    └─Conv2d: 2-4                       [32, 32, 256, 256]        9,216
|    └─BatchNorm2d: 2-5                  [32, 32, 256, 256]        64
|    └─ReLU: 2-6                         [32, 32, 256, 256]        --
├─MaxPool2d: 1-2                         [32, 32, 128, 128]        --
├─Sequential: 1-3                        [32, 64, 128, 128]        --
|    └─Conv2d: 2-7                       [32, 64, 128, 128]        18,432
|    └─BatchNorm2d: 2-8                  [32, 64, 128, 128]        128
|    └─ReLU: 2-9                         [32, 64, 128, 128]        --
|    └─Conv2d: 2-10                      [32, 64, 128, 128]        36,864
|    └─BatchNorm2d: 2-11                 [32, 64, 128, 128]        128
|    └─ReLU: 2-12                        [32, 64, 128, 128]        --
├─MaxPool2d: 1-4                         [32, 64, 64, 64]          --
├─Sequential: 1-5                        [32, 128, 64, 64]         --
|    └─Conv2d: 2-13                      [32, 128, 64, 64]         73,728
|    └─BatchNorm2d: 2-14                 [32, 128, 64, 64]         256
|    └─ReLU: 2-15                        [32, 128, 64, 64]         --
|    └─Conv2d: 2-16                      [32, 128, 64, 64]         147,456
|    └─BatchNorm2d: 2-17                 [32, 128, 64, 64]         256
|    └─ReLU: 2-18                        [32, 128, 64, 64]         --
├─MaxPool2d: 1-6                         [32, 128, 32, 32]         --
├─Sequential: 1-7                        [32, 256, 32, 32]         --
|    └─Conv2d: 2-19                      [32, 256, 32, 32]         294,912
|    └─BatchNorm2d: 2-20                 [32, 256, 32, 32]         512
|    └─ReLU: 2-21                        [32, 256, 32, 32]         --
|    └─Conv2d: 2-22                      [32, 256, 32, 32]         589,824
|    └─BatchNorm2d: 2-23                 [32, 256, 32, 32]         512
|    └─ReLU: 2-24                        [32, 256, 32, 32]         --
├─MaxPool2d: 1-8                         [32, 256, 16, 16]         --
├─Sequential: 1-9                        [32, 512, 16, 16]         --
|    └─Conv2d: 2-25                      [32, 512, 16, 16]         1,179,648
|    └─BatchNorm2d: 2-26                 [32, 512, 16, 16]         1,024
|    └─ReLU: 2-27                        [32, 512, 16, 16]         --
|    └─Conv2d: 2-28                      [32, 512, 16, 16]         2,359,296
|    └─BatchNorm2d: 2-29                 [32, 512, 16, 16]         1,024
|    └─ReLU: 2-30                        [32, 512, 16, 16]         --
├─ConvTranspose2d: 1-10                  [32, 256, 32, 32]         524,544
├─Sequential: 1-11                       [32, 256, 32, 32]         --
|    └─Conv2d: 2-31                      [32, 256, 32, 32]         1,179,648
|    └─BatchNorm2d: 2-32                 [32, 256, 32, 32]         512
|    └─ReLU: 2-33                        [32, 256, 32, 32]         --
|    └─Conv2d: 2-34                      [32, 256, 32, 32]         589,824
|    └─BatchNorm2d: 2-35                 [32, 256, 32, 32]         512
|    └─ReLU: 2-36                        [32, 256, 32, 32]         --
├─ConvTranspose2d: 1-12                  [32, 128, 64, 64]         131,200
├─Sequential: 1-13                       [32, 128, 64, 64]         --
|    └─Conv2d: 2-37                      [32, 128, 64, 64]         294,912
|    └─BatchNorm2d: 2-38                 [32, 128, 64, 64]         256
|    └─ReLU: 2-39                        [32, 128, 64, 64]         --
|    └─Conv2d: 2-40                      [32, 128, 64, 64]         147,456
|    └─BatchNorm2d: 2-41                 [32, 128, 64, 64]         256
|    └─ReLU: 2-42                        [32, 128, 64, 64]         --
├─ConvTranspose2d: 1-14                  [32, 64, 128, 128]        32,832
├─Sequential: 1-15                       [32, 64, 128, 128]        --
|    └─Conv2d: 2-43                      [32, 64, 128, 128]        73,728
|    └─BatchNorm2d: 2-44                 [32, 64, 128, 128]        128
|    └─ReLU: 2-45                        [32, 64, 128, 128]        --
|    └─Conv2d: 2-46                      [32, 64, 128, 128]        36,864
|    └─BatchNorm2d: 2-47                 [32, 64, 128, 128]        128
|    └─ReLU: 2-48                        [32, 64, 128, 128]        --
├─ConvTranspose2d: 1-16                  [32, 32, 256, 256]        8,224
├─Sequential: 1-17                       [32, 32, 256, 256]        --
|    └─Conv2d: 2-49                      [32, 32, 256, 256]        18,432
|    └─BatchNorm2d: 2-50                 [32, 32, 256, 256]        64
|    └─ReLU: 2-51                        [32, 32, 256, 256]        --
|    └─Conv2d: 2-52                      [32, 32, 256, 256]        9,216
|    └─BatchNorm2d: 2-53                 [32, 32, 256, 256]        64
|    └─ReLU: 2-54                        [32, 32, 256, 256]        --
├─Conv2d: 1-18                           [32, 11, 256, 256]        363
==========================================================================================
Total params: 7,763,371
Trainable params: 7,763,371
Non-trainable params: 0
Total mult-adds (G): 13.71
==========================================================================================
Input size (MB): 24.00
Forward/backward pass size (MB): 8944.00
Params size (MB): 29.61
Estimated Total Size (MB): 8997.61
…
