
==========================================================================================
Layer (type:depth-idx)                   Output Shape              Param #
==========================================================================================
├─LearningToDownsample: 1-1              [32, 64, 32, 32]          --
|    └─_ConvBNReLU: 2-1                  [32, 32, 127, 127]        --
|    |    └─Sequential: 3-1              [32, 32, 127, 127]        928
|    └─_DSConv: 2-2                      [32, 48, 64, 64]          --
|    |    └─Sequential: 3-2              [32, 48, 64, 64]          1,984
|    └─_DSConv: 2-3                      [32, 64, 32, 32]          --
|    |    └─Sequential: 3-3              [32, 64, 32, 32]          3,728
├─GlobalFeatureExtractor: 1-2            [32, 128, 8, 8]           --
|    └─Sequential: 2-4                   [32, 64, 16, 16]          --
|    |    └─LinearBottleneck: 3-4        [32, 64, 16, 16]          54,272
|    |    └─LinearBottleneck: 3-5        [32, 64, 16, 16]          54,272
|    |    └─LinearBottleneck: 3-6        [32, 64, 16, 16]          54,272
|    └─Sequential: 2-5                   [32, 96, 8, 8]            --
|    |    └─LinearBottleneck: 3-7        [32, 96, 8, 8]            66,624
|    |    └─LinearBottleneck: 3-8        [32, 96, 8, 8]            118,272
|    |    └─LinearBottleneck: 3-9        [32, 96, 8, 8]            118,272
|    └─Sequential: 2-6                   [32, 128, 8, 8]           --
|    |    └─LinearBottleneck: 3-10       [32, 128, 8, 8]           136,768
|    |    └─LinearBottleneck: 3-11       [32, 128, 8, 8]           206,848
|    |    └─LinearBottleneck: 3-12       [32, 128, 8, 8]           206,848
|    └─PyramidPooling: 2-7               [32, 128, 8, 8]           --
|    |    └─_ConvBNReLU: 3-13            [32, 32, 1, 1]            4,160
|    |    └─_ConvBNReLU: 3-14            [32, 32, 2, 2]            4,160
|    |    └─_ConvBNReLU: 3-15            [32, 32, 3, 3]            4,160
|    |    └─_ConvBNReLU: 3-16            [32, 32, 6, 6]            4,160
|    |    └─_ConvBNReLU: 3-17            [32, 128, 8, 8]           33,024
├─FeatureFusionModule: 1-3               [32, 128, 32, 32]         --
|    └─_DWConv: 2-8                      [32, 128, 32, 32]         --
|    |    └─Sequential: 3-18             [32, 128, 32, 32]         1,408
|    └─Sequential: 2-9                   [32, 128, 32, 32]         --
|    |    └─Conv2d: 3-19                 [32, 128, 32, 32]         16,512
|    |    └─BatchNorm2d: 3-20            [32, 128, 32, 32]         256
|    └─Sequential: 2-10                  [32, 128, 32, 32]         --
|    |    └─Conv2d: 3-21                 [32, 128, 32, 32]         8,320
|    |    └─BatchNorm2d: 3-22            [32, 128, 32, 32]         256
|    └─ReLU: 2-11                        [32, 128, 32, 32]         --
├─Classifer: 1-4                         [32, 11, 32, 32]          --
|    └─_DSConv: 2-12                     [32, 128, 32, 32]         --
|    |    └─Sequential: 3-23             [32, 128, 32, 32]         18,048
|    └─_DSConv: 2-13                     [32, 128, 32, 32]         --
|    |    └─Sequential: 3-24             [32, 128, 32, 32]         18,048
|    └─Sequential: 2-14                  [32, 11, 32, 32]          --
|    |    └─Dropout: 3-25                [32, 128, 32, 32]         --
|    |    └─Conv2d: 3-26                 [32, 11, 32, 32]          1,419
==========================================================================================
Total params: 1,137,019
Trainable params: 1,137,019
Non-trainable params: 0
Total mult-adds (M): 93.10
==========================================================================================
Input size (MB): 24.00
Forward/backward pass size (MB): 918.77
Params size (MB): 4.34
Estimated Total Size (MB): 947.10
…
