===============================================================================================
Layer (type:depth-idx)                        Output Shape              Param #
===============================================================================================
├─Encoder: 1-1                                [32, 128, 32, 32]         --
|    └─DownsamplerBlock: 2-1                  [32, 32, 128, 128]        --
|    |    └─MaxPool2d: 3-1                    [32, 3, 128, 128]         --
|    |    └─Conv2d: 3-2                       [32, 29, 128, 128]        812
|    |    └─BatchNorm2d: 3-3                  [32, 32, 128, 128]        64
|    |    └─ReLU: 3-4                         [32, 32, 128, 128]        --
|    └─ModuleList: 2                          []                        --
|    |    └─SS_nbt_module: 3-5                [32, 32, 128, 128]        6,400
|    |    └─SS_nbt_module: 3-6                [32, 32, 128, 128]        6,400
|    |    └─SS_nbt_module: 3-7                [32, 32, 128, 128]        6,400
|    |    └─DownsamplerBlock: 3-8             [32, 64, 64, 64]          9,376
|    |    └─SS_nbt_module: 3-9                [32, 64, 64, 64]          25,088
|    |    └─SS_nbt_module: 3-10               [32, 64, 64, 64]          25,088
|    |    └─DownsamplerBlock: 3-11            [32, 128, 32, 32]         37,184
|    |    └─SS_nbt_module: 3-12               [32, 128, 32, 32]         99,328
|    |    └─SS_nbt_module: 3-13               [32, 128, 32, 32]         99,328
|    |    └─SS_nbt_module: 3-14               [32, 128, 32, 32]         99,328
|    |    └─SS_nbt_module: 3-15               [32, 128, 32, 32]         99,328
|    |    └─SS_nbt_module: 3-16               [32, 128, 32, 32]         99,328
|    |    └─SS_nbt_module: 3-17               [32, 128, 32, 32]         99,328
|    |    └─SS_nbt_module: 3-18               [32, 128, 32, 32]         99,328
|    |    └─SS_nbt_module: 3-19               [32, 128, 32, 32]         99,328
├─Decoder: 1                                  []                        --
|    └─APN_Module: 2-2                        [32, 11, 32, 32]          --
|    |    └─Sequential: 3-20                  [32, 11, 1, 1]            1,441
|    |    └─Sequential: 3-21                  [32, 11, 32, 32]          1,441
|    |    └─Conv2dBnRelu: 3-22                [32, 1, 16, 16]           6,275
|    |    └─Conv2dBnRelu: 3-23                [32, 1, 8, 8]             28
|    |    └─Sequential: 3-24                  [32, 1, 4, 4]             24
|    |    └─Conv2dBnRelu: 3-25                [32, 1, 8, 8]             28
|    |    └─Conv2dBnRelu: 3-26                [32, 1, 16, 16]           52
===============================================================================================
Total params: 920,725
Trainable params: 920,725
Non-trainable params: 0
Total mult-adds (G): 1.40
===============================================================================================
Input size (MB): 24.00
Forward/backward pass size (MB): 4996.00
Params size (MB): 3.51
Estimated Total Size (MB): 5023.51
…
